src/stereo_params.npz (npz, 3540 bytes, 11 tensors)

K1 f8 [3, 3]
962.4925496219465 0.0 695.5 0.0 962.3312585426597 255.5 0.0 0.0
1.0
00000000: 572f dbbd f013 8e40 0000 0000 0000 0000
00000010: 0000 0000 00bc 8540 0000 0000 0000 0000
00000020: f4f9 e06a a612 8e40 0000 0000 00f0 6f40
00000030: 0000 0000 0000 0000 0000 0000 0000 0000
00000040: 0000 0000 0000 f03f

D1 f8 [1, 14]
-1.1756869817152602 1.2337878911208746 6.055577784876747e-05 -0.0016008768950716977 0.9652447825815953 -0.7766015513040182 0.5473012910253447 1.8648328222347281
0.0 0.0 0.0 0.0 0.0 0.0
00000000: c5cc 0c27 9dcf f2bf 190a 295f 98bd f33f
00000010: 7c6b fdae a8bf 0f3f bd3b 317a 903a 5abf
00000020: 9852 ba06 49e3 ee3f bbf4 1b7f ebd9 e8bf
00000030: dc65 40ff 7d83 e13f b016 00f1 5ad6 fd3f
00000040: 0000 0000 0000 0000 0000 0000 0000 0000
00000050: 0000 0000 0000 0000 0000 0000 0000 0000
00000060: 0000 0000 0000 0000 0000 0000 0000 0000

K2 f8 [3, 3]
905.2860571294868 0.0 695.5 0.0 908.5263982553621 255.5 0.0 0.0
1.0
00000000: 78ff 51d8 494a 8c40 0000 0000 0000 0000
00000010: 0000 0000 00bc 8540 0000 0000 0000 0000
00000020: 9ddb 4910 3664 8c40 0000 0000 00f0 6f40
00000030: 0000 0000 0000 0000 0000 0000 0000 0000
00000040: 0000 0000 0000 f03f

D2 f8 [1, 14]
1.499222130949449 0.4637702369830974 -0.0009756117024045642 -0.00283727637340269 0.5900522607917195 1.9102642996930437 0.7486598712043152 0.9906417329913646
0.0 0.0 0.0 0.0 0.0 0.0
00000000: 83e0 5d58 d0fc f73f 30d6 2c5c 69ae dd3f
00000010: ed7b 7e2d 06f8 4fbf efa6 7827 333e 67bf
00000020: 6500 6147 b5e1 e23f 115e 5e4c 7190 fe3f
00000030: abcd d48b 05f5 e73f 8805 a84a 56b3 ef3f
00000040: 0000 0000 0000 0000 0000 0000 0000 0000
00000050: 0000 0000 0000 0000 0000 0000 0000 0000
00000060: 0000 0000 0000 0000 0000 0000 0000 0000

R f8 [3, 3]
0.9994271232184354 0.0208936666752808 -0.02662480174920615 -0.020907334084543847 0.9997813901759137 -0.00023503062508969084 0.026614070654440315 0.000791549606607001
0.9996454695002728
00000000: 61ac 1e97 4efb ef3f 7d63 413c 2665 953f
00000010: 89ee 1933 8843 9bbf 8903 8f70 bb68 95bf
00000020: 138f be8a 35fe ef3f c4d2 56b2 51ce 2ebf
00000030: 5d09 4c0c b840 9b3f 6b84 36d6 ffef 493f
00000040: c224 e37e 18fd ef3f

T f8 [3, 1]
-0.46184895545992877 0.005497710394106847 -0.0158584584166019
00000000: 1019 d9eb ee8e ddbf 8072 8765 c484 763f
00000010: b59f 0e21 333d 90bf

R1 f8 [3, 3]
0.9999297464474519 0.009013800106911543 0.007697634517633589 -0.009012595556859144 0.9999593674644988 -0.0001911578617732461 -0.007699044801980666 0.0001217687656023976
0.9999703545013244
00000000: 9642 e9aa 6cff ef3f 7bfb 5fc5 d375 823f
00000010: e620 2808 8e87 7f3f eaab 5919 3275 82bf
00000020: 03d8 92c9 aaff ef3f d25d 8587 310e 29bf
00000030: e2bc 289a 0889 7fbf ae14 b876 c3eb 1f3f
00000040: d7af 31d4 c1ff ef3f

P1 f8 [3, 4]
610.9144156650806 0.0 641.3191375732422 0.0 0.0 610.9144156650806 254.10626983642578 0.0
0.0 0.0 1.0 0.0
00000000: c503 29b9 5017 8340 0000 0000 0000 0000
00000010: 0000 0098 8d0a 8440 0000 0000 0000 0000
00000020: 0000 0000 0000 0000 c503 29b9 5017 8340
00000030: 0000 0090 66c3 6f40 0000 0000 0000 0000
00000040: 0000 0000 0000 0000 0000 0000 0000 0000
00000050: 0000 0000 0000 f03f 0000 0000 0000 0000

R2 f8 [3, 3]
0.9993402932544582 -0.011895844848244274 0.03431424126277602 0.011890474802674997 0.9999292407973118 0.0003605654985282953 -0.03431610244565153 4.768499007123107e-05
0.9994110279755177
00000000: 584b a37e 98fa ef3f 13e9 a644 d95c 88bf
00000010: 6c77 05e0 a291 a13f b28c 4a83 085a 883f
00000020: e93b 719b 6bff ef3f 01eb 3406 49a1 373f
00000030: 80e4 7553 e191 a1bf 24fb 6dc8 2b00 093f
00000040: b454 0dd6 2cfb ef3f

P2 f8 [3, 4]
610.9144156650806 0.0 641.3191375732422 -282.3364440069538 0.0 610.9144156650806 254.10626983642578 0.0
0.0 0.0 1.0 0.0
00000000: c503 29b9 5017 8340 0000 0000 0000 0000
00000010: 0000 0098 8d0a 8440 d46c 1c13 62a5 71c0
00000020: 0000 0000 0000 0000 c503 29b9 5017 8340
00000030: 0000 0090 66c3 6f40 0000 0000 0000 0000
00000040: 0000 0000 0000 0000 0000 0000 0000 0000
00000050: 0000 0000 0000 f03f 0000 0000 0000 0000

Q f8 [4, 4]
1.0 0.0 0.0 -641.3191375732422 0.0 1.0 0.0 -254.10626983642578
0.0 0.0 0.0 610.9144156650806 0.0 0.0 2.1637816464460182 -0.0
00000000: 0000 0000 0000 f03f 0000 0000 0000 0000
00000010: 0000 0000 0000 0000 0000 0098 8d0a 84c0
00000020: 0000 0000 0000 0000 0000 0000 0000 f03f
00000030: 0000 0000 0000 0000 0000 0090 66c3 6fc0
00000040: 0000 0000 0000 0000 0000 0000 0000 0000
00000050: 0000 0000 0000 0000 c503 29b9 5017 8340
00000060: 0000 0000 0000 0000 0000 0000 0000 0000
00000070: 8f5d 79c0 6c4f 0140 0000 0000 0000 0080
